…
DataSetFactory           : [keras_Hut30] :  
                         : 
2018-01-24 23:57:24.969197: I tensorflow/core/common_runtime/gpu/gpu_device.cc:1120] Creating TensorFlow device (/device:GPU:0) -> (device: 0, name: TITAN Xp, pci bus id: 0000:84:00.0, compute capability: 6.1)
__________________________________________________________________________________________________
Layer (type)                    Output Shape         Param #     Connected to                     
==================================================================================================
input_1 (InputLayer)            (None, 58)           0                                            
__________________________________________________________________________________________________
dense_1 (Dense)                 (None, 1000)         59000       input_1[0][0]                    
__________________________________________________________________________________________________
batch_normalization_1 (BatchNor (None, 1000)         4000        dense_1[0][0]                    
__________________________________________________________________________________________________
dense_2 (Dense)                 (None, 1000)         1001000     batch_normalization_1[0][0]      
__________________________________________________________________________________________________
dropout_1 (Dropout)             (None, 1000)         0           dense_2[0][0]                    
__________________________________________________________________________________________________
batch_normalization_2 (BatchNor (None, 1000)         4000        dropout_1[0][0]                  
__________________________________________________________________________________________________
dense_3 (Dense)                 (None, 1000)         1001000     batch_normalization_2[0][0]      
__________________________________________________________________________________________________
dropout_2 (Dropout)             (None, 1000)         0           dense_3[0][0]                    
__________________________________________________________________________________________________
branch_point1 (Dense)           (None, 1000)         1001000     batch_normalization_1[0][0]      
__________________________________________________________________________________________________
add_1 (Add)                     (None, 1000)         0           dropout_2[0][0]                  
                                                                 branch_point1[0][0]              
__________________________________________________________________________________________________
batch_normalization_3 (BatchNor (None, 1000)         4000        add_1[0][0]                      
__________________________________________________________________________________________________
dense_4 (Dense)                 (None, 1000)         1001000     batch_normalization_3[0][0]      
__________________________________________________________________________________________________
dropout_3 (Dropout)             (None, 1000)         0           dense_4[0][0]                    
__________________________________________________________________________________________________
batch_normalization_4 (BatchNor (None, 1000)         4000        dropout_3[0][0]                  
__________________________________________________________________________________________________
dense_5 (Dense)                 (None, 1000)         1001000     batch_normalization_4[0][0]      
__________________________________________________________________________________________________
dropout_4 (Dropout)             (None, 1000)         0           dense_5[0][0]                    
__________________________________________________________________________________________________
branch_point2 (Dense)           (None, 1000)         1001000     batch_normalization_3[0][0]      
__________________________________________________________________________________________________
add_2 (Add)                     (None, 1000)         0           dropout_4[0][0]                  
                                                                 branch_point2[0][0]              
__________________________________________________________________________________________________
batch_normalization_5 (BatchNor (None, 1000)         4000        add_2[0][0]                      
__________________________________________________________________________________________________
dense_6 (Dense)                 (None, 1000)         1001000     batch_normalization_5[0][0]      
__________________________________________________________________________________________________
dropout_5 (Dropout)             (None, 1000)         0           dense_6[0][0]                    
__________________________________________________________________________________________________
batch_normalization_6 (BatchNor (None, 1000)         4000        dropout_5[0][0]                  
__________________________________________________________________________________________________
dense_7 (Dense)                 (None, 1000)         1001000     batch_normalization_6[0][0]      
__________________________________________________________________________________________________
dropout_6 (Dropout)             (None, 1000)         0           dense_7[0][0]                    
__________________________________________________________________________________________________
branch_point3 (Dense)           (None, 1000)         1001000     batch_normalization_5[0][0]      
__________________________________________________________________________________________________
add_3 (Add)                     (None, 1000)         0           dropout_6[0][0]                  
                                                                 branch_point3[0][0]              
__________________________________________________________________________________________________
batch_normalization_7 (BatchNor (None, 1000)         4000        add_3[0][0]                      
__________________________________________________________________________________________________
dense_8 (Dense)                 (None, 1000)         1001000     batch_normalization_7[0][0]      
__________________________________________________________________________________________________
dropout_7 (Dropout)             (None, 1000)         0           dense_8[0][0]                    
__________________________________________________________________________________________________
batch_normalization_8 (BatchNor (None, 1000)         4000        dropout_7[0][0]                  
__________________________________________________________________________________________________
dense_9 (Dense)                 (None, 1000)         1001000     batch_normalization_8[0][0]      
__________________________________________________________________________________________________
dropout_8 (Dropout)             (None, 1000)         0           dense_9[0][0]                    
__________________________________________________________________________________________________
branch_point4 (Dense)           (None, 1000)         1001000     batch_normalization_7[0][0]      
__________________________________________________________________________________________________
add_4 (Add)                     (None, 1000)         0           dropout_8[0][0]                  
                                                                 branch_point4[0][0]              
__________________________________________________________________________________________________
batch_normalization_9 (BatchNor (None, 1000)         4000        add_4[0][0]                      
__________________________________________________________________________________________________
dense_10 (Dense)                (None, 1000)         1001000     batch_normalization_9[0][0]      
__________________________________________________________________________________________________
dropout_9 (Dropout)             (None, 1000)         0           dense_10[0][0]                   
__________________________________________________________________________________________________
batch_normalization_10 (BatchNo (None, 1000)         4000        dropout_9[0][0]                  
__________________________________________________________________________________________________
dense_11 (Dense)                (None, 1000)         1001000     batch_normalization_10[0][0]     
__________________________________________________________________________________________________
dropout_10 (Dropout)            (None, 1000)         0           dense_11[0][0]                   
__________________________________________________________________________________________________
branch_point5 (Dense)           (None, 1000)         1001000     batch_normalization_9[0][0]      
__________________________________________________________________________________________________
add_5 (Add)                     (None, 1000)         0           dropout_10[0][0]                 
                                                                 branch_point5[0][0]              
__________________________________________________________________________________________________
batch_normalization_11 (BatchNo (None, 1000)         4000        add_5[0][0]                      
__________________________________________________________________________________________________
dense_12 (Dense)                (None, 1000)         1001000     batch_normalization_11[0][0]     
__________________________________________________________________________________________________
dropout_11 (Dropout)            (None, 1000)         0           dense_12[0][0]                   
__________________________________________________________________________________________________
batch_normalization_12 (BatchNo (None, 1000)         4000        dropout_11[0][0]                 
__________________________________________________________________________________________________
dense_13 (Dense)                (None, 1000)         1001000     batch_normalization_12[0][0]     
__________________________________________________________________________________________________
dropout_12 (Dropout)            (None, 1000)         0           dense_13[0][0]                   
__________________________________________________________________________________________________
branch_point6 (Dense)           (None, 1000)         1001000     batch_normalization_11[0][0]     
__________________________________________________________________________________________________
add_6 (Add)                     (None, 1000)         0           dropout_12[0][0]                 
                                                                 branch_point6[0][0]              
__________________________________________________________________________________________________
batch_normalization_13 (BatchNo (None, 1000)         4000        add_6[0][0]                      
__________________________________________________________________________________________________
dense_14 (Dense)                (None, 1000)         1001000     batch_normalization_13[0][0]     
__________________________________________________________________________________________________
dropout_13 (Dropout)            (None, 1000)         0           dense_14[0][0]                   
__________________________________________________________________________________________________
dense_15 (Dense)                (None, 2)            2002        dropout_13[0][0]                 
==================================================================================================
Total params: 19,132,002
Trainable params: 19,106,002
Non-trainable params: 26,000
__________________________________________________________________________________________________
Factory                  : Booking method: [1mKeras_TF[0m
                         : 
…
