…
---------------------------------------------------------------------------------------------------------------------------------------------------------------------------------------------
DataSetFactory           : [keras5_Hct15] :  
                         : 
____________________________________________________________________________________________________
Layer (type)                     Output Shape          Param #     Connected to                     
====================================================================================================
input_1 (InputLayer)             (None, 85)            0                                            
____________________________________________________________________________________________________
dense_1 (Dense)                  (None, 1000)          86000       input_1[0][0]                    
____________________________________________________________________________________________________
batch_normalization_1 (BatchNorm (None, 1000)          4000        dense_1[0][0]                    
____________________________________________________________________________________________________
dense_2 (Dense)                  (None, 1000)          1001000     batch_normalization_1[0][0]      
____________________________________________________________________________________________________
dropout_1 (Dropout)              (None, 1000)          0           dense_2[0][0]                    
____________________________________________________________________________________________________
batch_normalization_2 (BatchNorm (None, 1000)          4000        dropout_1[0][0]                  
____________________________________________________________________________________________________
dense_3 (Dense)                  (None, 1000)          1001000     batch_normalization_2[0][0]      
____________________________________________________________________________________________________
dropout_2 (Dropout)              (None, 1000)          0           dense_3[0][0]                    
____________________________________________________________________________________________________
branch_point1 (Dense)            (None, 1000)          1001000     batch_normalization_1[0][0]      
____________________________________________________________________________________________________
add_1 (Add)                      (None, 1000)          0           dropout_2[0][0]                  
                                                                   branch_point1[0][0]              
____________________________________________________________________________________________________
batch_normalization_3 (BatchNorm (None, 1000)          4000        add_1[0][0]                      
____________________________________________________________________________________________________
dense_4 (Dense)                  (None, 1000)          1001000     batch_normalization_3[0][0]      
____________________________________________________________________________________________________
dropout_3 (Dropout)              (None, 1000)          0           dense_4[0][0]                    
____________________________________________________________________________________________________
batch_normalization_4 (BatchNorm (None, 1000)          4000        dropout_3[0][0]                  
____________________________________________________________________________________________________
dense_5 (Dense)                  (None, 1000)          1001000     batch_normalization_4[0][0]      
____________________________________________________________________________________________________
dropout_4 (Dropout)              (None, 1000)          0           dense_5[0][0]                    
____________________________________________________________________________________________________
branch_point2 (Dense)            (None, 1000)          1001000     batch_normalization_3[0][0]      
____________________________________________________________________________________________________
add_2 (Add)                      (None, 1000)          0           dropout_4[0][0]                  
                                                                   branch_point2[0][0]              
____________________________________________________________________________________________________
batch_normalization_5 (BatchNorm (None, 1000)          4000        add_2[0][0]                      
____________________________________________________________________________________________________
dense_6 (Dense)                  (None, 1000)          1001000     batch_normalization_5[0][0]      
____________________________________________________________________________________________________
dropout_5 (Dropout)              (None, 1000)          0           dense_6[0][0]                    
____________________________________________________________________________________________________
batch_normalization_6 (BatchNorm (None, 1000)          4000        dropout_5[0][0]                  
____________________________________________________________________________________________________
dense_7 (Dense)                  (None, 1000)          1001000     batch_normalization_6[0][0]      
____________________________________________________________________________________________________
dropout_6 (Dropout)              (None, 1000)          0           dense_7[0][0]                    
____________________________________________________________________________________________________
branch_point3 (Dense)            (None, 1000)          1001000     batch_normalization_5[0][0]      
____________________________________________________________________________________________________
add_3 (Add)                      (None, 1000)          0           dropout_6[0][0]                  
                                                                   branch_point3[0][0]              
____________________________________________________________________________________________________
batch_normalization_7 (BatchNorm (None, 1000)          4000        add_3[0][0]                      
____________________________________________________________________________________________________
dense_8 (Dense)                  (None, 1000)          1001000     batch_normalization_7[0][0]      
____________________________________________________________________________________________________
dropout_7 (Dropout)              (None, 1000)          0           dense_8[0][0]                    
____________________________________________________________________________________________________
batch_normalization_8 (BatchNorm (None, 1000)          4000        dropout_7[0][0]                  
____________________________________________________________________________________________________
dense_9 (Dense)                  (None, 1000)          1001000     batch_normalization_8[0][0]      
____________________________________________________________________________________________________
dropout_8 (Dropout)              (None, 1000)          0           dense_9[0][0]                    
____________________________________________________________________________________________________
branch_point4 (Dense)            (None, 1000)          1001000     batch_normalization_7[0][0]      
____________________________________________________________________________________________________
add_4 (Add)                      (None, 1000)          0           dropout_8[0][0]                  
                                                                   branch_point4[0][0]              
____________________________________________________________________________________________________
batch_normalization_9 (BatchNorm (None, 1000)          4000        add_4[0][0]                      
____________________________________________________________________________________________________
dense_10 (Dense)                 (None, 1000)          1001000     batch_normalization_9[0][0]      
____________________________________________________________________________________________________
dropout_9 (Dropout)              (None, 1000)          0           dense_10[0][0]                   
____________________________________________________________________________________________________
batch_normalization_10 (BatchNor (None, 1000)          4000        dropout_9[0][0]                  
____________________________________________________________________________________________________
dense_11 (Dense)                 (None, 1000)          1001000     batch_normalization_10[0][0]     
____________________________________________________________________________________________________
dropout_10 (Dropout)             (None, 1000)          0           dense_11[0][0]                   
____________________________________________________________________________________________________
branch_point5 (Dense)            (None, 1000)          1001000     batch_normalization_9[0][0]      
____________________________________________________________________________________________________
add_5 (Add)                      (None, 1000)          0           dropout_10[0][0]                 
                                                                   branch_point5[0][0]              
____________________________________________________________________________________________________
batch_normalization_11 (BatchNor (None, 1000)          4000        add_5[0][0]                      
____________________________________________________________________________________________________
dense_12 (Dense)                 (None, 1000)          1001000     batch_normalization_11[0][0]     
____________________________________________________________________________________________________
dropout_11 (Dropout)             (None, 1000)          0           dense_12[0][0]                   
____________________________________________________________________________________________________
batch_normalization_12 (BatchNor (None, 1000)          4000        dropout_11[0][0]                 
____________________________________________________________________________________________________
dense_13 (Dense)                 (None, 1000)          1001000     batch_normalization_12[0][0]     
____________________________________________________________________________________________________
dropout_12 (Dropout)             (None, 1000)          0           dense_13[0][0]                   
____________________________________________________________________________________________________
branch_point6 (Dense)            (None, 1000)          1001000     batch_normalization_11[0][0]     
____________________________________________________________________________________________________
add_6 (Add)                      (None, 1000)          0           dropout_12[0][0]                 
                                                                   branch_point6[0][0]              
____________________________________________________________________________________________________
batch_normalization_13 (BatchNor (None, 1000)          4000        add_6[0][0]                      
____________________________________________________________________________________________________
dense_14 (Dense)                 (None, 1000)          1001000     batch_normalization_13[0][0]     
____________________________________________________________________________________________________
dropout_13 (Dropout)             (None, 1000)          0           dense_14[0][0]                   
____________________________________________________________________________________________________
dense_15 (Dense)                 (None, 2)             2002        dropout_13[0][0]                 
====================================================================================================
Total params: 19,159,002
Trainable params: 19,133,002
Non-trainable params: 26,000
____________________________________________________________________________________________________
Factory                  : Booking method: [1mKeras+TF[0m
                         : 
…
